HW2/code/preTrained/CartPole_0.01.pth (torch_old, 6516 bytes, 7 tensors)

policy_fc1.weight f4 [128, 4]
0	0x3dcad779	0.099043794
1	0xbe39a4ba	-0.18129244
2	0x3f03a5f1	0.5142508
3	0x3d80a801	0.06282044
4	0xbf003121	-0.50074965
5	0x3e36f907	0.17868434
6	0x3edb9e5e	0.42894262
7	0xbe9ad22a	-0.30238467
8	0xbe8b66c8	-0.27226853
9	0x3ec333f3	0.38125572
10	0xbf11710b	-0.56813115
11	0xbd3445d6	-0.044011913
12	0x3ed19f69	0.40941933
13	0xbd7fc696	-0.062445246
14	0x3f9cb2ba	1.2242043
15	0x3f07c944	0.5304148
16	0xbd7f2546	-0.062291406
17	0xbe64964c	-0.22322959
18	0xbf183ae0	-0.59464836
19	0xbf7c9fa4	-0.9868109
20	0xbde18c1d	-0.110130526
21	0xbe60daf3	-0.21958522
22	0x3f5025e0	0.8130779
23	0xbc751a14	-0.014959831
24	0xbdcfdb07	-0.10149198
25	0xbe7776cd	-0.24166413
26	0x3f28be93	0.65915793
27	0x3f2fe8b1	0.68714434
28	0xbdf601e1	-0.12012077
29	0xbdc99960	-0.09843707
30	0xbf655716	-0.8958601
31	0xbf59dc82	-0.85102093
32	0x3d8452e2	0.06461121
33	0xbe94c087	-0.29053137
34	0x3ecf4388	0.4048121
35	0x3ea433a0	0.32070637
36	0xbea7e19a	-0.32789308
37	0x3e1ad0ef	0.15118764
38	0xbd9b7490	-0.07590592
39	0x3bf77878	0.007552203
40	0xbbbe31df	-0.005804285
41	0xbcd0c9fb	-0.025486937
42	0xbe128e05	-0.14311989
43	0x3f079f6c	0.52977633
44	0xbe0da132	-0.13831022
45	0xbeeb6724	-0.45977128
46	0x3f45606e	0.77100265
47	0xbde4f6e1	-0.11179901
48	0xbece83a0	-0.40334797
49	0xbe8242be	-0.25441545
50	0xbe18e52d	-0.14931174
51	0x3e93e05a	0.28882104
52	0x3e68b023	0.22723441
53	0x3e8590d4	0.26087058
54	0x3f864a06	1.049134
55	0x3f5a50db	0.85279626
56	0x3e1921a6	0.14954242
57	0x3ef9c7f4	0.48785365
58	0x3eb20414	0.34768736
59	0x3f2106c7	0.62900966
60	0xbcc267e9	-0.023731189
61	0xbd9db00c	-0.07699594
62	0x3ddecaaa	0.10878499
63	0x3e1c9e62	0.15294793
64	0x3e2ed658	0.17073953
65	0x3e6ffba7	0.23435842
66	0xbe3023d8	-0.17201173
67	0x3ea08be9	0.31356743
68	0xbd2c68fb	-0.042092305
69	0xbce0fead	-0.027465189
70	0xbd5f819d	-0.05456697
71	0x3f0e0f43	0.5549204
72	0xbef1bb2b	-0.4721311
73	0x3e334b61	0.17509224
74	0xbeb3f232	-0.35145718
75	0xbf72938f	-0.94756407
76	0xbe5ba216	-0.2144855
77	0xbeac6ae5	-0.33675304
78	0x3f06ef41	0.5270882
79	0x3f4ea355	0.80717975
80	0xbe97d5fc	-0.29655445
81	0xbf15732e	-0.58378875
82	0xbe6942ea	-0.22779432
83	0x3c62e9ca	0.013849685
84	0xbcec7f60	-0.02886933
85	0xbe577aa1	-0.21042873
86	0xbf95739a	-1.1675904
87	0xbf75e363	-0.9605009
88	0xbf0f122b	-0.558871
89	0x3eae749b	0.34073338
90	0xbf8817ef	-1.0632304
91	0xbf6119a0	-0.87929726
92	0xbe20a465	-0.15687712
93	0x3d20b622	0.039236195
94	0xbea0438d	-0.31301537
95	0xbe81fb39	-0.2538698
96	0x3def5ccc	0.116876215
97	0x3eba445c	0.3638028
98	0x3e17cc78	0.14824092
99	0x3f3b71cc	0.73220515
100	0x3df8804a	0.12133844
101	0xbeffe178	-0.49976707
102	0xbd9ddf4e	-0.077086076
103	0xbec475f7	-0.3837125
104	0x3e83ec4c	0.25766218
105	0x3e9a55f3	0.301437
106	0x3f8dfe40	1.1093216
107	0x3f4d69c2	0.802395
108	0xbe5e24b9	-0.21693696
109	0xbeaa8004	-0.33300793
110	0xbe6c996d	-0.23105402
111	0x3ea93e75	0.33055463
112	0xba95b650	-0.0011422131
113	0x3e8acb31	0.27108148
114	0x3f33b3cf	0.7019624
115	0x3f7f3edf	0.9970531
116	0x3f01a39c	0.50640273
117	0xbf190cfb	-0.5978543
118	0xbf4d5cb7	-0.80219597
119	0xbf5eaf8c	-0.86986613
120	0xbe9e0b5c	-0.30868042
121	0x3eb71db7	0.35764858
122	0xbe0d537d	-0.1380138
123	0x3eae9083	0.3409463
124	0x3d4beb71	0.04978508
125	0x3eceffb3	0.40429458
126	0x3f97abc4	1.1849294
127	0x3f41a59f	0.7564334
128	0xbf1033cf	-0.56329054
129	0x3ee633eb	0.44961485
130	0x3d18c109	0.037293468
131	0xbebcd138	-0.3687837
132	0xbd9a98ce	-0.075486764
133	0x3ce9509f	0.028480826
134	0x3f4160b2	0.7553817
135	0x3f571d91	0.8402949
136	0x3d8e8bed	0.069602825
137	0xbe964330	-0.29348135
138	0x3d27d764	0.040976897
139	0xbe195b1f	-0.14976166
140	0x3e0900f9	0.13379277
141	0xbecaa893	-0.39581737
142	0xbecaba53	-0.3959528
143	0xbf61cc7e	-0.88202655
144	0xbec12f87	-0.37731573
145	0xbed111b0	-0.40833807
146	0x3d6fe80e	0.058570914
147	0xbea2567b	-0.31706604
148	0xbeb99d4d	-0.36252823
149	0x3e1de68c	0.15419978
150	0x3eb80f9f	0.35949418
151	0xbe2c20a7	-0.16809331
152	0x3dde1172	0.10843171
153	0xbe843a03	-0.2582551
154	0x3ea99bcb	0.33126673
155	0xbe532943	-0.20621209
156	0x3e223e2a	0.15844026
157	0x3e0edbed	0.13951083
158	0x3eae59ab	0.34052786
159	0x3dd63ec2	0.10461189
160	0xbe44b57b	-0.19209854
161	0xbe903483	-0.28165063
162	0xbee0c897	-0.43903038
163	0x3e4b9c0a	0.19883743
164	0x3e8ab809	0.27093533
165	0xbf3c2dba	-0.73507273
166	0xbf58b71e	-0.84654415
167	0xbf54fd5c	-0.83199096
168	0xbf59a829	-0.8502222
169	0x3ec8987b	0.39178833
170	0xbee2dd83	-0.44309625
171	0xbe1a8146	-0.15088376
172	0xbeb2a95d	-0.3489484
173	0x3db8bb76	0.0902013
174	0x3b921db8	0.004459109
175	0x3cc661f3	0.024216628
176	0x3e7569e3	0.23966174
177	0x3e19e78f	0.15029739
178	0x3fa0bf63	1.2558407
179	0x3f0dc1ff	0.5537414
180	0x3e869002	0.26281744
181	0x3e854c58	0.26034808
182	0x3f6bee30	0.9216032
183	0x3f53a915	0.82679874
184	0xbedd27e7	-0.43194506
185	0x3edc9e75	0.43089643
186	0xbf494f09	-0.78636223
187	0x3d6afc20	0.05736935
188	0x3d37b706	0.04485228
189	0x3eaa18b4	0.33221972
190	0x3f7d42fd	0.9893034
191	0x3f7d4565	0.9893401
192	0xbd9fed66	-0.07808952
193	0x3c2be3e2	0.010491343
194	0xbec8b869	-0.39203194
195	0xbf27fad9	-0.6561714
196	0x3e71a358	0.23597467
197	0xbe85b929	-0.26117828
198	0x3f003d95	0.50093967
199	0x3f04718f	0.51735777
200	0xbe0c56b9	-0.13704957
201	0xbde7813d	-0.11303947
202	0x3f193053	0.5983936
203	0x3f41e5a1	0.7574101
204	0x3e6fbcdc	0.23411888
205	0x3e92e9f9	0.28694132
206	0x3e3b1df0	0.18273139
207	0x3e4d3e86	0.20043382
208	0xbf00eaf9	-0.5035854
209	0xbd40b719	-0.047049616
210	0xbe7f14b3	-0.2491024
211	0x3f07e192	0.5307857
212	0x3e9c531c	0.30532157
213	0xbe96fd62	-0.2949019
214	0xbf9cdb66	-1.2254455
215	0xbf36aa2d	-0.7135342
216	0xbe821b48	-0.2541144
217	0xbec27b5b	-0.37984738
218	0xbd9a27c8	-0.07527119
219	0x3d82a74f	0.06379568
220	0x3e662f38	0.2247895
221	0x3e409539	0.18806924
222	0x3f0711bc	0.52761436
223	0x3eb30f6e	0.3497271
224	0x3e4b5e75	0.19860251
225	0xbe1cbb46	-0.15305814
226	0x3f72eaea	0.948897
227	0x3da166ca	0.078809336
228	0x3e784f0e	0.24248907
229	0x3e3ff8c1	0.18747236
230	0x3fa4fe85	1.2890173
231	0x3f4bd586	0.79622686
232	0xbe20ace4	-0.15690953
233	0xbd19cfc1	-0.037551645
234	0xbddae279	-0.106877275
235	0xbf067873	-0.5252754
236	0xbd39d3f4	-0.04536815
237	0xbc094e50	-0.008380488
238	0xbed487ee	-0.41509956
239	0xbebf6e4e	-0.37388843
240	0xbf043271	-0.5163947
241	0x3e00101b	0.12506144
242	0xbd9acd03	-0.07558634
243	0xbdd419ec	-0.10356507
244	0x3edd77d7	0.43255493
245	0xbedf30e9	-0.43592003
246	0xbec31299	-0.38100126
247	0xbc62879c	-0.013826277
248	0x3ed2f259	0.41200522
249	0xbf23b1b6	-0.6394304
250	0xbd5297c8	-0.05141428
251	0xbf07fb2f	-0.5311765
252	0xbdecc586	-0.11561112
253	0x3e2c68d1	0.1683686
254	0xbe37e4aa	-0.17958322
255	0x3e9857da	0.29754525

policy_fc1.bias f4 [128]
0	0xbe5af31e	-0.21381804
1	0xbef3acae	-0.47592682
2	0x3e5553ad	0.20832701
3	0x3e1bf67f	0.1523075
4	0x3e3299b8	0.17441452
5	0xbd87ebdf	-0.06636786
6	0x3dfb8560	0.12281299
7	0x3dcb18f8	0.09916872
8	0x3dc7ed49	0.097620554
9	0x3e36dc3c	0.1785745
10	0xbef0acac	-0.47006738
11	0x3d7b88af	0.06140965
12	0x3e6e8e27	0.23296414
13	0x3e3a536c	0.18195885
14	0x3d992c2b	0.074791275
15	0xbf4660cb	-0.77491444
16	0xbeeaa43a	-0.4582842
17	0xbe10caf3	-0.14139919
18	0x3e80c4c4	0.2515012
19	0x3e620c93	0.22075109
20	0xbea74d4d	-0.32676163
21	0x3e2fe824	0.17178398
22	0x3e899f99	0.26879576
23	0xbf03a97f	-0.51430506
24	0x3d8857a8	0.06657344
25	0x3e2c61f2	0.16834238
26	0x3eaeed2a	0.34165317
27	0xbe91610f	-0.28394362
28	0x3eea6704	0.4578172
29	0x3e02d3f4	0.12776166
30	0xbf1a58e3	-0.6029188
31	0x3eb3f5f8	0.35148597
32	0xbddc27c6	-0.10749774
33	0x3eb18ba2	0.34676844
34	0xbeecdd73	-0.46262702
35	0x3e3c51bc	0.18390554
36	0xbe86b4e3	-0.2630988
37	0xbe06ae5b	-0.13152449
38	0xbeef650b	-0.46756777
39	0xbed2f417	-0.4120185
40	0xbe90fa68	-0.28316045
41	0x3e2eaff1	0.17059304
42	0xbd8e9c8d	-0.069634534
43	0xbee6dc9a	-0.4509018
44	0x3dbca052	0.09210266
45	0x3e5b3bf5	0.2140959
46	0xbd400d8c	-0.04688792
47	0x3e876a88	0.26448464
48	0x3e841873	0.25799903
49	0xbf26a938	-0.6510196
50	0x3e338672	0.17531756
51	0xbee308cc	-0.4434265
52	0xbdf2c3aa	-0.11853726
53	0x3cdc1e56	0.026869934
54	0xbea12e47	-0.3148062
55	0x3e9dcffb	0.3082274
56	0x3e67e631	0.22646405
57	0x3e7f6d23	0.24943976
58	0x3d65fa07	0.056146648
59	0xbebc2823	-0.36749372
60	0xbef00126	-0.46875876
61	0xbe9c9a2c	-0.30586374
62	0xbd059011	-0.032608096
63	0xbf1e06bd	-0.6172903
64	0x3e69e4f4	0.22841245
65	0xbc6afaeb	-0.01434205
66	0xbe288a5a	-0.16459027
67	0xbf0c86b7	-0.5489306
68	0x3e0ab8a5	0.13546999
69	0x3e9f6f9d	0.31139842
70	0x3da56d2b	0.08077463
71	0xbe900c5f	-0.28134438
72	0x3d70ffbd	0.05883764
73	0x3db8915e	0.090121016
74	0xbdc1e46e	-0.09467398
75	0x3dc53772	0.09629716
76	0x3e7e1b60	0.2481513
77	0xbe8a7fd5	-0.27050653
78	0x3d2e3c9b	0.042538267
79	0xbebead78	-0.3724172
80	0x3e9cbd67	0.30613253
81	0x3ec634dd	0.38712206
82	0xbf146d76	-0.57979524
83	0xbd449693	-0.04799516
84	0x3eacc80b	0.3374637
85	0x3e91075d	0.2832593
86	0x3eb5677c	0.35430515
87	0x3e33f85f	0.17575215
88	0x3e7b95c3	0.24568848
89	0x3e8d50f8	0.27600837
90	0xbe33e2d2	-0.17566994
91	0x3e9d5ae7	0.30733415
92	0x3dc8258b	0.09772786
93	0xbdb6aa47	-0.089191966
94	0xbc7e537f	-0.015522837
95	0x3e87a90a	0.26496154
96	0x3eb3049a	0.34964448
97	0xbf0a7b6d	-0.5409458
98	0xbbf9b015	-0.0076198676
99	0x3cc245f4	0.023714997
100	0xbf15333b	-0.58281296
101	0x3d4e6f40	0.050399065
102	0xbdf357b0	-0.118819594
103	0x3cd676cd	0.026179696
104	0xbd6d6109	-0.057953868
105	0x3d208f3c	0.0391991
106	0x3e48f610	0.19625115
107	0x3e92561e	0.28581327
108	0xbeb842d5	-0.3598849
109	0x3e958ad2	0.29207474
110	0xbedd6e5b	-0.43248257
111	0x3e080c6d	0.1328599
112	0xbe19051b	-0.14943354
113	0x3e810853	0.25201663
114	0x3e125a6d	0.14292307
115	0x3e5c6075	0.2152117
116	0x3e666984	0.22501189
117	0xbe57cb66	-0.21073684
118	0xbea85507	-0.3287737
119	0xbe90994c	-0.28241956
120	0x3e5d7b97	0.21629177
121	0x3cbc3ede	0.022979196
122	0x3e87545e	0.26431555
123	0x3d4a3e3b	0.049375754
124	0x3e8afd75	0.27146497
125	0x3e18e218	0.14929998
126	0xbe56bbaa	-0.20970026
127	0xbe56e07f	-0.20984076

policy_fc2.weight f4 [2, 128]
0	0xbd46e083	-0.048553955
1	0x3cbe7ec2	0.023253802
2	0xbc664a82	-0.01405585
3	0xbe08fb18	-0.13377035
4	0x3e8646f5	0.2622601
5	0xbe033e59	-0.12816752
6	0xbe81d781	-0.2535973
7	0x3e6fad4f	0.23405956
8	0xbd9061fe	-0.070499405
9	0xbcd6e8e2	-0.026234094
10	0xbe1fbb4c	-0.15598792
11	0xbcbe2d7a	-0.023215044
12	0xbc6f8e13	-0.0146212755
13	0xbeca9786	-0.39568728
14	0xbe372c9e	-0.17888114
15	0xbd97c6e7	-0.074109845
16	0xbe0d62de	-0.13807246
17	0xbdf9fe05	-0.122066535
18	0x3dfca9e0	0.123370886
19	0xbde43a60	-0.11143947
20	0x3e1c32e4	0.15253788
21	0x3ebae127	0.36499903
22	0x3e8a5640	0.2701893
23	0x3c89588c	0.016765855
24	0xbe4deea1	-0.20110561
25	0x3c7c4da6	0.015399372
26	0xbe97f2f3	-0.29677543
27	0x3c0dc123	0.008652004
28	0xbe5f0586	-0.21779451
29	0x3f0787fe	0.5294188
30	0x3c14f4e8	0.009091593
31	0xbe89170d	-0.267754
32	0x3e138784	0.14407164
33	0xbe480407	-0.19532786
34	0xbd87a55a	-0.06623335
35	0x3ea10934	0.31452334
36	0x3e023e1d	0.12719007
37	0xbd197d21	-0.037472848
38	0x3d51110f	0.05104166
39	0xbdd36c34	-0.103233725
40	0x3dd4617b	0.103701554
41	0x3ee7ce0b	0.45274386
42	0x3eb8086f	0.35943934
43	0x3c90a77c	0.017657988
44	0xbe96dea0	-0.29466724
45	0xbecd51cd	-0.40101472
46	0x3cc0c25c	0.023530178
47	0xbebe05dd	-0.37113848
48	0x3d6e8205	0.058229465
49	0xbdde5679	-0.10856337
50	0xbe910e22	-0.28331095
51	0xbe36c5b5	-0.17848857
52	0xbd45fe7b	-0.048338395
53	0x3ec56e9f	0.3856096
54	0x3e37fad3	0.17966776
55	0xbdaec16e	-0.085329875
56	0xbcf86941	-0.030323626
57	0xbee6cf1b	-0.45079884
58	0x3c2d3cdc	0.010573592
59	0x3d64eb7a	0.05588863
60	0x3e0f31ee	0.1398389
61	0x3dd77f58	0.10522336
62	0x3dce655b	0.10077926
63	0xbd88f7f1	-0.06687916
64	0xbeaaa228	-0.3332684
65	0x3d95fbcb	0.07323416
66	0xbe1a9cd8	-0.15098894
67	0x3d99a04d	0.07501278
68	0x3e3ab07a	0.18231383
69	0xbeb5e76c	-0.35528123
70	0x3e5d5901	0.21615984
71	0xbe8e087f	-0.27740857
72	0x3da476b1	0.08030451
73	0x3bfb5dc4	0.00767109
74	0xbbd138b3	-0.006384933
75	0x3f126d00	0.5719757
76	0xbe97fcbe	-0.29685014
77	0x3d939b5e	0.07207368
78	0x3e6677b1	0.22506596
79	0xbe610c83	-0.21977429
80	0xbeaee39f	-0.34158036
81	0x3f3d65ee	0.7398366
82	0xbe391366	-0.18073806
83	0xbe40fc7d	-0.18846317
84	0xbea26531	-0.31717828
85	0x3f311a03	0.69180316
86	0x3e3dcad1	0.185344
87	0x3d94fc1e	0.0727465
88	0xbe8c245b	-0.27371487
89	0xbd0238ea	-0.03179256
90	0x3df94953	0.121721886
91	0x3e9bf93f	0.30463597
92	0xbe9e9ab3	-0.309774
93	0x3dbc1dce	0.09185372
94	0x3e9bf7ca	0.30462486
95	0x3e3ce2e3	0.18445925
96	0xbc04a91b	-0.0080969585
97	0x3d6288ea	0.055306353
98	0xbd55d6f1	-0.052206937
99	0xbe293b37	-0.16526495
100	0x3c497058	0.012294851
101	0xbe870a24	-0.26374924
102	0xbddfc006	-0.109252974
103	0x3d08d7bb	0.03340886
104	0x3e47526a	0.19465032
105	0x3eaeed06	0.3416521
106	0xbe8a844f	-0.27054068
107	0xbe00dd72	-0.12584475
108	0xbde95328	-0.11392814
109	0xbdd52a51	-0.10408462
110	0xbe280f18	-0.16412008
111	0xbe594146	-0.21216306
112	0xbe35b16e	-0.17743465
113	0x3df47cb2	0.11937846
114	0x3e8a3776	0.26995438
115	0xbe08e317	-0.13367878
116	0xbd48f2fb	-0.04905985
117	0xbdd689bd	-0.1047549
118	0x3d47a2c7	0.04873922
119	0xbd8b1a13	-0.06792083
120	0xbe3ee43a	-0.18641749
121	0xbda6835f	-0.08130526
122	0xbeb19d09	-0.3469012
123	0xbdc7ea60	-0.097615
124	0x3e58616a	0.2113091
125	0xbe011734	-0.12606508
126	0x3d339a30	0.043848217
127	0x3d6236dc	0.0552281
128	0xbd4e7f8b	-0.050414603
129	0xbd025f2c	-0.031829044
130	0x3daaf63e	0.08347748
131	0x3e2d7193	0.16937856
132	0xbe92a027	-0.28637812
133	0x3db9e00a	0.09075935
134	0x3e4d4194	0.20044547
135	0xbe6602f3	-0.22462063
136	0x3d46ba30	0.048517406
137	0xbb9547c2	-0.0045556733
138	0x3e2eca8f	0.17069457
139	0x3dc651d2	0.09683575
140	0x3dde1703	0.10844233
141	0x3ead69bb	0.33869728
142	0x3e255c23	0.16148429
143	0xbcb14a2f	-0.021641819
144	0x3dafd09d	0.08584712
145	0x3c02b671	0.007978068
146	0xbdd83678	-0.10557264
147	0x3e3ffaa0	0.1874795
148	0xbd9452d6	-0.07242362
149	0xbec42a4f	-0.3831353
150	0xbecb9c21	-0.39767554
151	0xbcfd92b8	-0.03095375
152	0x3e897748	0.26848817
153	0xbca8a0bf	-0.020584462
154	0x3e7f0d15	0.24907334
155	0xbbcee353	-0.0063137203
156	0x3e94b132	0.2904144
157	0xbed08018	-0.40722728
158	0x3cd97caa	0.026548702
159	0x3eb185fc	0.34672534
160	0xbe51f977	-0.2050532
161	0x3e88a167	0.2668564
162	0xbd256b9e	-0.040385835
163	0xbea6394a	-0.32465583
164	0xbd84009d	-0.064454295
165	0xbdc3db29	-0.09563286
166	0xbd87949d	-0.066201426
167	0x3d9d49cc	0.07680091
168	0xbd9e0a8d	-0.07716856
169	0xbeedff0c	-0.46483648
170	0xbea03250	-0.31288385
171	0xbe2740ad	-0.16333266
172	0x3e9d2e4b	0.3069938
173	0x3eb0efb7	0.34557888
174	0xbd81bd17	-0.06334894
175	0x3ef945e7	0.48686144
176	0x3d14f2f1	0.0363645
177	0x3e345401	0.1761017
178	0x3ea32304	0.31862652
179	0x3e5f0baf	0.217818
180	0xbd779f4c	-0.06045465
181	0xbe9a1e99	-0.3010147
182	0xbd946f9f	-0.072478525
183	0x3d5f6a17	0.054544535
184	0x3caf7d33	0.021422004
185	0x3eab5afa	0.33467847
186	0xbc98601b	-0.018600514
187	0x3dc962b2	0.09833278
188	0xbd8fedbd	-0.07027767
189	0xbe3b1003	-0.18267827
190	0xbe855509	-0.2604144
191	0x3dc5db1b	0.09660932
192	0x3eceafb3	0.40368423
193	0xbdcc53ca	-0.09976919
194	0x3d899c0e	0.06719218
195	0xbdd10528	-0.102060616
196	0xbe95dc13	-0.29269466
197	0x3ee391de	0.44447225
198	0xbeaa002e	-0.33203262
199	0x3e479b98	0.19492948
200	0xbd192b68	-0.03739491
201	0x3cecac89	0.028890865
202	0x3e2be9a3	0.16788344
203	0xbf1cb593	-0.6121456
204	0x3eb15ade	0.3463964
205	0x3dc6a4ad	0.09699378
206	0xbe614cb3	-0.22001915
207	0x3e4addf5	0.19811232
208	0x3e74ae9b	0.23894732
209	0xbf3fe217	-0.7495436
210	0x3de4ec54	0.111778885
211	0x3dff9aa0	0.12480664
212	0x3e35df0b	0.17760865
213	0xbf41e622	-0.7574178
214	0xbe3b2216	-0.18274722
215	0xbe128e15	-0.14312012
216	0x3e860fbe	0.26183885
217	0x3d25bfe8	0.04046622
218	0x3cf8560e	0.030314472
219	0xbe7845e1	-0.24245407
220	0x3e9c3fdf	0.3051748
221	0x3da14e56	0.078762695
222	0xbeaca6ff	-0.33721158
223	0xbe7714e1	-0.24129058
224	0xbc0b3301	-0.008496047
225	0x3bce0695	0.0062874057
226	0xbd662ad5	-0.05619319
227	0x3d437832	0.04772205
228	0xbdbdfdba	-0.0927691
229	0x3e095835	0.13412555
230	0xba8f767e	-0.0010945348
231	0xbd7da12f	-0.061921295
232	0xbd3facb0	-0.046795547
233	0xbe87fa97	-0.26558372
234	0x3ec58f1f	0.38585755
235	0x3d1f6c27	0.0389215
236	0x3c26fb0a	0.010191688
237	0x3c72ddf3	0.014823425
238	0x3d9194ee	0.07108484
239	0x3e096035	0.13415606
240	0x3e13da6d	0.14438792
241	0xbd01a898	-0.031654924
242	0xbdee9c69	-0.116509266
243	0x3d11f579	0.03563449
244	0x3d359fb2	0.04434175
245	0x3d6d2cef	0.05790418
246	0x3de5ca57	0.11220234
247	0x3cd6328b	0.026147148
248	0x3e797e25	0.24364527
249	0x3dd2078f	0.10255348
250	0x3ebbe354	0.36696875
251	0x3c2433c8	0.010022111
252	0xbeb3ad40	-0.35093117
253	0x3e37faa2	0.17966703
254	0x3d90fa88	0.07079035
255	0x3d377288	0.04478696

policy_fc2.bias f4 [2]
0	0xbdb6b0c9	-0.08920438
1	0x3d15f621	0.03661168

value_fc1.weight f4 [64, 4]
0	0x3cf8f260	0.03038901
1	0xbcab594d	-0.020916605
2	0x3eb70c9e	0.35751814
3	0xbe520dec	-0.20513123
4	0xbd776633	-0.0604002
5	0x3e2b487a	0.16726866
6	0xbda0735e	-0.078345045
7	0x3e06b7a4	0.13155991
8	0xbe384a6f	-0.17997144
9	0x3d86c135	0.0657982
10	0x3e058df3	0.1304243
11	0x3e54b046	0.20770368
12	0x3d5e761b	0.054311853
13	0x3ea3b9b9	0.31977633
14	0xbf1efcde	-0.62104595
15	0x3ebe8a52	0.37214905
16	0xbe8ae0b3	-0.27124557
17	0x3e869e7e	0.26292795
18	0xbe7b39fb	-0.24533837
19	0x3dc79840	0.09745836
20	0xbedcfb05	-0.43160263
21	0xbe2f17c2	-0.17098907
22	0xbe10524c	-0.14093894
23	0xbdfceca7	-0.12349825
24	0xbecc0708	-0.39849114
25	0x3e6075e5	0.21919973
26	0x3e6dd485	0.23225601
27	0xbda342b8	-0.0797171
28	0xbefe3f92	-0.49657875
29	0xbe911f44	-0.28344166
30	0x3f6749a8	0.90346766
31	0x3f090931	0.5352965
32	0xbdff5815	-0.12467972
33	0x3ec8f80c	0.39251745
34	0xbd3b92c2	-0.045794256
35	0x3e512d82	0.20427516
36	0x3e571916	0.21005663
37	0xbe3f0335	-0.18653567
38	0x3da3cc96	0.07998006
39	0xbd62cf86	-0.05537369
40	0xbc942dfc	-0.018088333
41	0x3e2057b6	0.15658459
42	0x3ea1efa8	0.31628156
43	0xbd92bc36	-0.07164805
44	0xbe93b95c	-0.28852355
45	0x3ea29704	0.3175584
46	0x3d7ff413	0.062488627
47	0x3b5de67a	0.0033859299
48	0xbe8c34cf	-0.2738404
49	0xbc3faa8c	-0.011698376
50	0xbe884e7d	-0.26622382
51	0xbd8bf996	-0.06834714
52	0xbc2687b2	-0.010164188
53	0xbe1c38ab	-0.15255992
54	0xbbdd0695	-0.0067451694
55	0x3df9bfad	0.121947624
56	0x3e07249f	0.13197564
57	0xbe0f1b3a	-0.1397523
58	0xbc0c4c97	-0.008563182
59	0x3e14cb7f	0.14530753
60	0x3db7b9b7	0.08970969
61	0xbed480f0	-0.41504622
62	0xbf453bcd	-0.77044374
63	0x3ebb3381	0.36562732
64	0x3e4a035e	0.19727847
65	0xbdc60a68	-0.096699536
66	0x3ed88c23	0.42294416
67	0xbeac1790	-0.33611727
68	0xbdc7c3bb	-0.097541295
69	0xbe229486	-0.1587697
70	0xbd0b4bf2	-0.034007974
71	0x3edfb290	0.4369092
72	0xbecebbbf	-0.40377614
73	0x3eadd96f	0.3395495
74	0xbf06f1cf	-0.5271272
75	0xbe9a83ab	-0.3017858
76	0x3f114439	0.56744725
77	0x3e5eface	0.21775362
78	0xbde4a56b	-0.111643635
79	0xbecd1845	-0.4005758
80	0xbeb129a5	-0.34602085
81	0x3ec8225f	0.39088723
82	0x3eb02693	0.3440443
83	0xbec3539a	-0.3814972
84	0xbe7b58c2	-0.24545577
85	0xbbcd8acb	-0.006272649
86	0xbf55856f	-0.8340673
87	0x3e3e1ab6	0.18564877
88	0xbeb98893	-0.3623701
89	0x3e04b04f	0.12957881
90	0xbdfb05ad	-0.12256942
91	0xbe078dee	-0.13237736
92	0xbf91b46e	-1.1383188
93	0x3ec133fc	0.37734973
94	0x3efa266c	0.4885744
95	0xbecda7cb	-0.40167078
96	0xbd7ce7a0	-0.061744332
97	0xbe04ac79	-0.12956418
98	0xbf0e21b7	-0.55520195
99	0x3e3b84c6	0.18312368
100	0x3e4af524	0.19820076
101	0x3e88bc4f	0.26706168
102	0xbebc65f3	-0.3679653
103	0xbe112822	-0.14175466
104	0xbe07e520	-0.13270998
105	0x3e833bed	0.25631657
106	0xbe650a0a	-0.22367111
107	0x3e19c036	0.15014729
108	0xbeb4b193	-0.35291728
109	0xbd868158	-0.06567639
110	0xbd292367	-0.041293528
111	0xbe751a59	-0.23935832
112	0xbdd8f757	-0.10594051
113	0x3e799170	0.24371886
114	0x3b5dc777	0.0033840814
115	0x3e711334	0.23542482
116	0xbdc90b32	-0.098165885
117	0x3e0f0968	0.13968432
118	0x3e6a85d7	0.22902618
119	0x3e32aec9	0.17449488
120	0x3ead25a9	0.33817795
121	0xbf25c1d5	-0.6474889
122	0x3f9bef34	1.2182374
123	0xbe2fc09c	-0.17163318
124	0xbea25a18	-0.3170936
125	0x3e861373	0.26186714
126	0x3eb45ca2	0.35226923
127	0xbf1b23f9	-0.60601765
128	0x3e14f6ec	0.14547318
129	0x3f11f0b5	0.57007915
130	0xbe9be356	-0.3044688
131	0xbf0a4ce3	-0.5402357
132	0xbe85decd	-0.26146546
133	0x3e207cdc	0.1567263
134	0xbe59d045	-0.21270855
135	0x3e8aa3f2	0.27078205
136	0x3dd9cc8f	0.106347196
137	0xbd295d0e	-0.04134851
138	0x3e9128ff	0.2835159
139	0xbc209f2c	-0.0098035745
140	0x3b8b0ef3	0.0042437254
141	0x3ed77d0d	0.42087594
142	0x3d0d7c79	0.034542535
143	0xbdbf07a7	-0.093276314
144	0x3e4bbb08	0.19895566
145	0x3ad38851	0.0016138648
146	0xbf80a962	-1.0051692
147	0xbdacc38c	-0.08435735
148	0x3db98652	0.09058823
149	0xbed63dcb	-0.4184402
150	0xbee20f37	-0.44152233
151	0x3eeb6d62	0.4598189
152	0x3da55c10	0.080742
153	0x3ded03dd	0.115730025
154	0xbde8a0a7	-0.11358767
155	0xbe602f46	-0.21893033
156	0x3efb0d24	0.49033463
157	0x3e3016fe	0.17196271
158	0xbf66c061	-0.90137297
159	0xbe8b2b41	-0.27181438
160	0x3ddff22b	0.10934862
161	0xbe5cc705	-0.21560295
162	0xbe80256d	-0.25028554
163	0xbef63f6d	-0.48095265
164	0x3f03e565	0.51521903
165	0x3f2b04bc	0.668041
166	0xbf126847	-0.57190365
167	0xbed51c9f	-0.416234
168	0x3f29dee0	0.66355705
169	0xbe70eb68	-0.235273
170	0xbf3dda45	-0.7416118
171	0xbefc0110	-0.4921956
172	0xbdd6fc73	-0.104973696
173	0x3d09ee86	0.03367474
174	0x3c3d5fe4	0.011558507
175	0x3ceb1091	0.028694423
176	0xbf02be75	-0.51071864
177	0x3e12905a	0.14312878
178	0xbe59b047	-0.2125865
179	0xbe32474f	-0.17410015
180	0x3e8b4f9b	0.27209172
181	0xbe15fcfb	-0.14647286
182	0x3e7775ab	0.2416598
183	0x3e541363	0.2071052
184	0x3f02a63a	0.5103489
185	0x3ecd8488	0.40140176
186	0xbe5793b6	-0.21052441
187	0xbe3f44f7	-0.18678652
188	0x3d164dd7	0.036695328
189	0xbe0f651d	-0.14003415
190	0xbf070549	-0.5274244
191	0x3e7a8647	0.24465285
192	0xbd9542de	-0.072881445
193	0xbf6d63c5	-0.9273036
194	0x3fb216a5	1.391316
195	0x3e0cceb6	0.13750729
196	0x3dfa2229	0.12213547
197	0xbea49cda	-0.32150918
198	0xbe67254a	-0.22572818
199	0x3ebc3ca2	0.3676501
200	0x3d5d68d7	0.05405506
201	0xbe834d56	-0.2564494
202	0x3e7811d5	0.24225552
203	0xbed21de4	-0.4103843
204	0x3d20ea6c	0.039286062
205	0x3ec2b214	0.38026488
206	0x3e4bd2af	0.19904588
207	0x3e9d18d4	0.30683005
208	0xbe0aa9d2	-0.13541344
209	0x3e07e5e9	0.13271298
210	0xbddb9205	-0.107212104
211	0x3e692c0a	0.22770706
212	0x3e0fc9ca	0.1404182
213	0xbdbaf5da	-0.09128924
214	0xbf11ff1b	-0.57029885
215	0xbec6c712	-0.38823754
216	0xbe835b6a	-0.2565568
217	0xbe601243	-0.21881966
218	0xbf12f82c	-0.5740993
219	0xbd825a8f	-0.06364929
220	0x3f28aa71	0.6588507
221	0x3e79462d	0.24343176
222	0xbf07566d	-0.5286625
223	0x3db838d6	0.089952156
224	0x3d98ffba	0.07470651
225	0x3e8d862c	0.27641428
226	0xbf360680	-0.7110367
227	0x3ef5e38a	0.4802516
228	0xbe9f4c95	-0.31113115
229	0x3e8afda8	0.2714665
230	0x3c0d02cb	0.008606623
231	0x3e0e8a2b	0.13919894
232	0xbd2f3377	-0.04277369
233	0xbe5ccae6	-0.21561775
234	0xbeb01f0f	-0.34398696
235	0xbe8cb39d	-0.27480784
236	0xbcab75af	-0.02093014
237	0xbe7c5ea4	-0.24645478
238	0x3dc8e974	0.09810153
239	0x3c83a9ee	0.01607224
240	0x3ee35352	0.44399506
241	0xbd31d793	-0.04341848
242	0xbd30b76a	-0.043143667
243	0xbeab9230	-0.3350997
244	0x3ef09d3b	0.46994957
245	0xbde2acc5	-0.110681094
246	0xbf397ae1	-0.72453123
247	0xbeb149ef	-0.3462672
248	0xbe4384ab	-0.19093578
249	0x3d18e971	0.037332002
250	0xbe7e704a	-0.24847522
251	0x3dc84894	0.09779468
252	0x3e24cdc1	0.16094114
253	0x3d4a0637	0.049322333
254	0xbe870800	-0.2637329
255	0x3f01b5b1	0.50667864

value_fc1.bias f4 [64]
0	0xbf05af57	-0.5222067
1	0xbf02e2c9	-0.51127297
2	0xbf1e1f9c	-0.6176698
3	0x3f7d7485	0.9900592
4	0xbe875fee	-0.26440376
5	0x3f5cc106	0.8623203
6	0x3f419940	0.75624466
7	0xbed41237	-0.41420147
8	0x3f1cef6b	0.6130282
9	0x3f3defde	0.74194133
10	0x3f026902	0.5094148
11	0x3f2be077	0.6713938
12	0x3ed991dc	0.42494094
13	0x3f0a199a	0.53945315
14	0x3f171d81	0.59029394
15	0x3f24eac1	0.64420706
16	0xbf194825	-0.5987571
17	0x3f552a93	0.8326809
18	0x3f179493	0.5921108
19	0xbf04b2b7	-0.518352
20	0x3e9087e6	0.28228682
21	0x3e6a9ba1	0.2291093
22	0x3f3ab716	0.72935617
23	0x3c87e1df	0.016587196
24	0x3f37b44d	0.7175949
25	0xbf4ba370	-0.7954626
26	0x3f31d0b8	0.69459105
27	0x3f661099	0.89869076
28	0x3f104607	0.56356853
29	0x3f29ac19	0.66278225
30	0xbdf39d22	-0.11895205
31	0xba3b5bc4	-0.0007147158
32	0xbe84d0e2	-0.25940615
33	0xbf04a6fe	-0.5181731
34	0xbf0680e6	-0.52540433
35	0x3f2de9a1	0.67934614
36	0xbf238af2	-0.6388389
37	0x3ef42ba4	0.47689545
38	0x3f280279	0.6562877
39	0xbf16b6a5	-0.58872443
40	0x3e9483c1	0.2900677
41	0xbe3e30a4	-0.18573242
42	0xbf119b71	-0.5687781
43	0xbf3c7e09	-0.73629814
44	0x3f4b4d76	0.7941507
45	0xbdc2658a	-0.09492023
46	0xbdff51bf	-0.12466764
47	0x3f21ce20	0.63205147
48	0xbeb3dbc0	-0.35128593
49	0x3f07369a	0.5281769
50	0x3edcce91	0.43126348
51	0x3f634206	0.8877262
52	0x3efae5a4	0.49003327
53	0x3eecf875	0.46283308
54	0x3f82c6f8	1.021697
55	0xbf0ff8e3	-0.56239146
56	0x3f08433e	0.53227603
57	0x3f56769d	0.8377474
58	0x3e8ae711	0.27129415
59	0x3f1c3d9f	0.61031526
60	0xbf0e8216	-0.55667245
61	0xbf2dd43b	-0.67901963
62	0x3e95cecc	0.29259336
63	0x3f1a6343	0.6030771

value_fc2.weight f4 [1, 64]
0	0xbd284b10	-0.04108721
1	0xbe374788	-0.17898381
2	0xbcfefbf5	-0.031126002
3	0x3f05a066	0.52197874
4	0xbd455a94	-0.048182085
5	0x3eb797bc	0.35857952
6	0x3eb13e46	0.34617823
7	0xbeb8ce3b	-0.3609484
8	0x3ec611da	0.38685495
9	0x3ed00bd4	0.40634024
10	0x3e4973be	0.19673058
11	0x3f02ff50	0.51170826
12	0x3e337bc4	0.17527682
13	0x3e501c3f	0.20323275
14	0x3ec4e1a9	0.38453415
15	0x3edcc83a	0.4312151
16	0x3d4fec18	0.050762266
17	0x3ee5707f	0.4481239
18	0x3ecc1df8	0.39866614
19	0xbe5cb7ed	-0.21554537
20	0x3e260d8e	0.16216108
21	0x3e01c587	0.12673007
22	0x3efd7f7e	0.4951133
23	0xbed3c779	-0.41363123
24	0x3edead65	0.43491665
25	0xbe21ee82	-0.1581364
26	0x3ef1e759	0.47246817
27	0x3ed63d60	0.418437
28	0x3ea5c5f3	0.32377586
29	0x3e95aea7	0.29234812
30	0xbe76aed9	-0.24090137
31	0x3d4edd43	0.05050398
32	0xbe93de2a	-0.28880435
33	0xbcffcca1	-0.031225504
34	0x3d05be14	0.032651976
35	0x3ee58c00	0.44833374
36	0xbe5fe68a	-0.21865287
37	0x3e86b50d	0.26310006
38	0x3eeffd8d	0.4687313
39	0xbe98aaee	-0.2981791
40	0x3cc90288	0.02453734
41	0xbec9be6b	-0.3940309
42	0xbecfcdd1	-0.40586713
43	0xbb5f2e37	-0.0034054646
44	0x3ee3fba8	0.44527936
45	0xbdb592e5	-0.088659085
46	0xbe3645ba	-0.17800036
47	0x3ee12700	0.43975067
48	0xbf1112f4	-0.56669545
49	0x3e6c6c6c	0.23088235
50	0x3de929ea	0.113849476
51	0x3f00bd77	0.502891
52	0x3e636048	0.22204697
53	0x3e6a38d6	0.22873244
54	0x3f082950	0.5318804
55	0xbeae5150	-0.34046412
56	0x3ef1d8d0	0.47235727
57	0x3ef77ed3	0.48338947
58	0x3d2723a4	0.040805474
59	0x3ec6a658	0.38798785
60	0xbe5ade2e	-0.21373817
61	0xbe8d22bc	-0.27565563
62	0x3dd1a299	0.10236091
63	0x3ed5e3ff	0.4177551
