HW2/code/preTrained/LunarLander_0.01.pth (torch_old, 8274 bytes, 5 tensors)

affine.weight f4 [128, 8]
0.06184016 -1.0744151 -1.0172775 1.9782499 -0.23395553 -0.68729377 -0.70888335 -0.71734864
-0.57167983 -0.17159253 0.59331906 -0.3112359 -0.29703316 1.0299364 -0.296711 0.32683945
-0.0968684 -0.06822184 0.09022509 0.16596909 -0.20023003 0.018642178 -0.44804987 -0.24458057
-0.4575487 -0.26694283 -0.024447113 0.09534355 -0.010221685 -0.058770765 -0.8198368 -0.12022634
0.3848065 -3.3261514 -1.2929641 -0.34492132 0.60841405 0.11042993 -0.4032837 -0.30545086
-0.29926154 0.2200904 -0.84591436 -2.1559684 -0.47732103 -0.15267126 -1.4403617 -1.0852965
-0.15340735 -1.7228459 -0.8378376 -1.9141015 0.35874197 0.7103747 -0.61786675 0.3423753
-0.5995975 0.016695837 -1.6877664 2.42311 0.92593324 -0.19522427 -0.111615404 -1.0473537
-0.09997338 -0.1522408 0.16965784 0.21786372 -0.11417077 0.103296585 0.13733234 -0.09526319
0.025682697 -0.16115718 -0.1337004 0.1938403 -0.13491084 0.15032665 -0.025853438 -0.29135075
-0.23140381 0.2129324 -1.3197803 0.23479441 -1.9027612 1.7575388 -0.6799657 -0.5667719
-0.036451474 0.060464174 0.956244 -0.4936699 4.14479 -0.62530863 -1.7363648 -2.9050298
0.98044497 -1.6755995 -0.9168838 1.2370257 0.2877375 -0.04786661 -0.19290367 -0.45224252
0.23125544 -0.2823406 1.0883043 2.1626525 -1.0933998 -0.100982614 -1.0838592 -1.0060804
-0.14080894 -0.18767837 -0.026198315 0.3071088 0.28009912 -0.051858548 -0.50294906 0.09302447
-0.18376462 -0.4920497 0.7874047 -1.1916701 0.12232153 -0.3982956 0.6616341 -0.769013
-1.0796247 -0.27206084 -1.3514656 1.7657326 1.3171543 -0.8289897 -0.40304318 -0.14505425
0.25952214 -0.17463963 0.09006722 0.14158694 0.07346032 -0.012904261 -0.06319891 -0.27309886
-0.027610423 -1.0615004 1.008329 0.948093 0.21934037 0.027850542 -0.2529124 -0.22516929
-0.16561736 -0.44563285 -0.24638493 -0.6289155 -1.8696367 -0.021582827 -0.77318054 -0.7777641
-0.22595447 -1.3114003 -0.5843175 -1.2144828 0.25922364 1.607565 0.04812382 -0.15617613
-0.10736813 -0.09079484 0.10191928 0.3835176 -0.9000444 -0.014145104 -0.6509775 -0.28807253
-0.12613487 -0.17530426 0.0323528 -0.10786699 -0.017950688 0.063074216 0.036137667 0.07252865
2.713394 -0.51496994 0.72836065 -0.11031272 -0.81709635 -0.26817507 -1.3270385 -0.96226496
0.35010928 0.12413448 -0.73200154 -0.23306462 0.3444289 0.14086524 -1.6281509 0.31266865
0.14916536 -0.27945483 -0.4512637 1.6931875 -0.073108084 -0.30143225 0.036584146 0.09276107
0.42571604 0.42418557 -0.90452 0.39645627 -1.0178763 0.110441245 -0.7748661 -0.46680933
-0.05793914 -0.4409872 -0.31799588 0.729608 -0.2836293 0.06294052 -0.8394677 -1.0117843
0.19855608 -0.9952978 -0.35764146 -1.6771773 0.39861283 -0.443348 -0.10704416 -0.22616152
0.21859449 -0.31055596 -0.15104562 -0.11001108 -0.022199964 -0.043593515 -0.1161015 -0.18805814
0.16365692 -0.78676707 -1.9194883 -0.71163374 0.5163733 4.7216277 0.126617 0.20504962
-0.2283622 -0.40298524 0.12651381 2.0428681 0.35436377 -0.121796936 -0.06728261 -0.2331858
00000000: 1c4c 7d3d 6f86 89bf 2636 82bf 4b37 fd3f
00000010: 0a92 6fbe 7cf2 2fbf 6179 35bf 29a4 37bf
00000020: 9c59 12bf f4b5 2fbe c2e3 173f 505a 9fbe
00000030: bb14 98be f5d4 833f 81ea 97be 8057 a73e
00000040: f162 c6bd e4b7 8bbd efc7 b83d cdf3 293e
00000050: 1a09 4dbe 7bb7 983c cb66 e5be 5473 7abe
00000060: d343 eabe bbac 88be 5045 c8bc 7b43 c33d
00000070: db78 27bc 9db9 70bd d3e0 51bf 3a39 f6bd
00000080: 5c05 c53e aadf 54c0 d97f a5bf 8799 b0be
00000090: 06c1 1b3f 1629 e23d 337b cebe 0e64 9cbe
000000a0: cf38 99be 615f 613e d88d 58bf 63fb 09c0
000000b0: 6c63 f4be db55 1cbe c65d b8bf ffea 8abf
000000c0: d116 1dbe 3786 dcbf 867c 56bf 4701 f5bf
000000d0: 07ad b73e 1edb 353f 842c 1ebf d14b af3e
000000e0: 397f 19bf b5c5 883c bb08 d8bf 3c14 1b40
000000f0: f609 6d3f dfe8 47be 9e96 e4bd b00f 86bf
00000100: d8be ccbd 03e5 1bbe c9ba 2d3e ab17 5f3e
00000110: 5dd2 e9bd 298d d33d d9a0 0c3e 5919 c3bd
00000120: 8564 d23c 6306 25be c2e8 08be 127e 463e
00000130: 1126 0abe 3bef 193e 97ca d3bc ed2b 95be
00000140: 1ff5 6cbe f30a 5a3e 90ee a8bf f26d 703e
00000150: ae8d f3bf 08f7 e03f 3b12 2ebf f717 11bf
00000160: 244e 15bd 48a9 773d 68cc 743f 4dc2 fcbe
00000170: 1fa2 8440 3a14 20bf 3441 debf 02ec 39c0
00000180: 71fe 7a3f 0b7a d6bf e6b8 6abf dc56 9e3f
00000190: 5452 933e c70f 44bd 8a88 45be 558c e7be
000001a0: 3ace 6c3e f28e 90be 8e4d 8b3f e668 0a40
000001b0: 86f4 8bbf f9cf cebd e6bb 8abf 3ec7 80bf
000001c0: 3830 10be c22e 40be d99d d6bc 5d3d 9d3e
000001d0: 2769 8f3e a169 54bd 45c1 00bf 9d83 be3d
000001e0: cb2c 3cbe f0ed fbbe 5b93 493f a588 98bf
000001f0: b683 fa3d 67ed cbbe da60 293f 09de 44bf
00000200: 2431 8abf 8f4b 8bbe d3fc acbf 8703 e23f
00000210: 8398 a83f ab38 54bf ad5b cebe 1a89 14be
00000220: 16e0 843e bbd4 32be 2a75 b83d 2bfc 103e
00000230: 5d72 963d 656c 53bc 6e6e 81bd 9dd3 8bbe
00000240: 412f e2bc 3fdf 87bf ed10 813f 39b6 723f
00000250: c39a 603e d226 e43c bc7d 81be c792 66be
00000260: 9997 29be fd29 e4be 554c 7cbe 9b00 21bf
00000270: 4150 efbf 78ce b0bc 29ef 45bf 8c1b 47bf
00000280: 9c60 67be f7db a7bf d595 15bf 2c74 9bbf
00000290: f6b8 843e b1c4 cd3f 7c1d 453d a3ec 1fbe
000002a0: d2e3 dbbd a5f2 b9bd 0ebb d03d 6b5c c43e
000002b0: 4f69 66bf dec0 67bc 76a6 26bf 3e7e 93be
000002c0: 8029 01be f682 33be 5f84 043d 5ee9 dcbd
000002d0: 520d 93bc 0e2d 813d 1705 143d e789 943d
000002e0: 3fa8 2d40 12d5 03bf d875 3a3f a3eb e1bd
000002f0: 3a2d 51bf 3e4e 89be 66dc a9bf ff56 76bf
00000300: 8641 b33e 383a fe3d 7464 3bbf 7ea8 6ebe
00000310: fc58 b03e fa3e 103e 4067 d0bf 1b16 a03e
00000320: cebe 183e b414 8fbe 090c e7be 5eba d83f
00000330: b1b9 95bd 5455 9abe 42d9 153d 84f9 bd3d
00000340: 74f7 d93e da2e d93e 9f8e 67bf 51fc ca3e
00000350: c549 82bf 052f e23d a05d 46bf a201 efbe
00000360: 9751 6dbd 13c9 e1be 5bd0 a2be 97c7 3a3f
00000370: dc37 91be f6e6 803d 5be7 56bf 2682 81bf
00000380: 4952 4b3e d6cb 7ebf c81c b7be bfad d6bf
00000390: fb16 cc3e 82fe e2be f839 dbbd e396 67be
000003a0: 3cd7 5f3e 3101 9fbe b4ab 1abe 7d4d e1bd
000003b0: b3dc b5bc 1d8f 32bd a0c6 edbd 5092 40be
000003c0: ae95 273e 9169 49bf cbb1 f5bf a12d 36bf
000003d0: 0a31 043f 9317 9740 e3a7 013e 87f8 513e
000003e0: c8d7 69be 1554 cebe d68c 013e 5abe 0240
000003f0: 2b6f b53e ac70 f9bd 77cb 89bd 42c8 6ebe

affine.bias f4 [128]
-0.34557572 -0.961957 -0.47119612 -0.6828934 0.3654384 -0.6059789 -0.5263671 -0.2513626
-0.40092352 -0.37073234 -0.4209521 -0.37757704 -0.6157167 0.018917758 -0.6569395 -0.805181
-0.04941461 -0.4839703 -0.52109647 -1.0995189 -0.5676402 -0.8618954 -0.38959357 -0.045805752
-1.1276313 -1.0353459 -0.9666819 -0.4627057 -0.7212089 -0.44152883 -0.22864005 -0.47782508
-0.73282915 -0.92344147 -0.42049387 -1.0177841 -0.72638303 -0.7250377 -0.32238987 -0.4805231
-0.8877868 -1.1461041 -0.6163405 -0.5967546 -0.42064136 -0.53139454 0.043192327 -0.23799953
-1.1306837 -0.6952521 -0.7084517 -0.9502184 -0.26483566 -0.25554967 -0.52568793 -0.85310286
-0.36020842 -1.1789386 -0.15941896 -0.8356059 -0.43051866 -0.22078386 -0.47576043 -0.65199596
-0.4335491 -0.6396433 -0.7056852 -0.3336181 -0.81948817 -0.9426416 -0.80096716 -0.33651334
-0.74882835 -0.8501977 -0.65805864 -0.248375 -0.44621685 -0.80238444 -0.47011545 -0.4041883
-0.5375907 -0.2902952 0.44759744 -0.6122576 -0.80117124 -1.1567172 -0.45375028 -0.90597767
-0.5933609 -0.3445521 -0.42854065 -0.9744504 -0.3438676 -0.5987093 -0.9748885 -0.2713484
-0.736371 -0.8009552 0.43215147 -0.749231 -0.53120154 -0.7129092 -0.8345041 -0.97039056
-0.617591 0.5261744 -0.47397685 -0.41757905 -0.8699969 -0.51034033 -0.79853296 -0.55273473
-0.35974017 -0.47220886 -0.80604726 -0.09452797 -0.16845083 -0.3191518 -0.5699844 -0.10672456
-0.75006324 -0.6363686 -0.30495942 -0.7809699 -0.74363923 -1.2771051 0.10866081 -0.8144675
00000000: 4def b0be d042 76bf 9e40 f1be 1ad2 2ebf
00000010: be1a bb3e 6f21 1bbf ffbf 06bf 99b2 80be
00000020: d945 cdbe a1d0 bdbe 0987 d7be c751 c1be
00000030: 9c9f 1dbf 6af9 9a3c 302d 28bf 5820 4ebf
00000040: f966 4abd f5ca f7be 9466 05bf 09bd 8cbf
00000050: de50 11bf 2da5 5cbf cf78 c7be d09e 3bbd
00000060: 3956 90bf 3786 84bf 7778 77bf c3e7 ecbe
00000070: 25a1 38bf 1110 e2be 9e20 6abe 7da5 f4be
00000080: b19a 3bbf a966 6cbf f94a d7be c046 82bf
00000090: 3df4 39bf 129c 39bf 4910 a5be 2007 f6be
000000a0: ff45 63bf 8ab3 92bf 7ec8 1dbf e9c4 18bf
000000b0: 4e5e d7be 7909 08bf 70ea 303d 26b6 73be
000000c0: 3eba 90bf 0bfc 31bf 175d 35bf 8341 73bf
000000d0: 8a98 87be 68d7 82be 7c93 06bf f364 5abf
000000e0: 3d6d b8be 76e7 96bf b93e 23be 45ea 55bf
000000f0: f16c dcbe 2a15 62be df96 f3be 35e9 26bf
00000100: 26fa ddbe aabf 23bf c9a7 34bf fecf aabe
00000110: fac9 51bf f650 71bf 2f0c 4dbf 7a4b acbe
00000120: 37b3 3fbf 8ea6 59bf 8876 28bf 0456 7ebe
00000130: 8976 e4be 1169 4dbf f9b2 f0be c5f1 cebe
00000140: 8b9f 09bf 93a1 94be 7e2b e53e eabc 1cbf
00000150: 8f19 4dbf 4f0f 94bf f551 e8be 27ee 67bf
00000160: 80e6 17bf 2269 b0be ae69 dbbe 9575 79bf
00000170: 6a0f b0be 0345 19bf 4b92 79bf 2dee 8abe
00000180: cf82 3cbf 660b 4dbf f542 dd3e 9acd 3fbf
00000190: d3fc 07bf 3881 36bf 10a2 55bf 846b 78bf
000001a0: 721a 1ebf 5eb3 063f 18ad f2be eccc d5be
000001b0: 1eb8 5ebf aaa5 02bf a86c 4cbf 0680 0dbf
000001c0: dd2f b8be 5cc5 f1be 1d59 4ebf e197 c1bd
000001d0: 607e 2cbe dd67 a3be 7fea 11bf 6892 dabd
000001e0: 2504 40bf 0de9 22bf a423 9cbe a5ed 47bf
000001f0: 245f 3ebf 2e78 a3bf 8f89 de3d f180 50bf

action_layer.weight f4 [4, 128]
0.07593276 0.2794845 0.055744544 -0.40629107 -0.1946842 -0.9386004 0.32384217 0.22397526
0.08233045 0.11327205 -1.3306664 -0.82627225 -0.53714323 -0.4273866 0.009588103 -1.8383996
1.3407661 -0.005526153 -0.044553183 -0.8716804 -2.053761 -0.4327615 0.28793582 -1.3626841
-1.4390708 1.8274289 -0.97550344 0.33719006 0.34017476 0.12654012 -1.7225088 0.54822314
-0.37138018 -0.5621028 0.046389014 -0.6036328 0.8796692 -0.40923297 0.18183203 -0.0097911935
0.401041 -0.69001645 1.3005079 0.11082772 0.03337571 0.29828334 -0.13620561 0.003580053
-0.69240576 -0.0063299886 -0.6453662 -0.2531229 -0.0014900672 -0.3876474 0.4848643 -1.6103091
-1.0955875 0.11198982 0.18463129 -0.093896754 -1.4120785 -0.99551964 0.05522545 0.07079166
1.1331297 -0.33661947 -0.050079167 -0.05556521 0.116154484 -0.2221527 -0.7135228 3.9287133
-0.3232697 1.3796198 0.3123552 -0.04971855 -0.07845747 -0.7544063 0.07059068 0.32721725
-0.049138326 -0.058403436 -1.3657967 -1.1239384 -0.37028754 -1.2316592 0.040830616 0.67076784
-0.6620307 -0.20348531 -2.0210211 -0.38185585 0.09071964 -0.17889205 2.1022232 0.079322845
-0.08509751 0.49434885 -1.2739686 0.46443522 -1.2156186 0.054377355 0.13331994 -0.15561286
-0.80869675 -0.4845766 1.9485412 3.0152943 -0.51088816 0.093156435 -0.39670232 0.2139155
-2.413767 -1.0844711 -0.3643081 0.46610928 -1.0419402 -0.11540449 -0.28733027 1.5905541
-0.18387851 -0.31524026 -0.25801617 -0.20588315 -0.48079243 -0.29280514 -1.5043274 -0.31238046
0.43999818 -0.34894377 0.14659108 -0.44562432 -0.7381766 0.26618588 -1.7380724 -1.2056983
0.0026540363 0.014113927 0.08404292 -1.1573992 -0.444568 1.4425656 -0.03910441 0.20615837
-1.3387514 0.24225844 0.41615325 0.11773191 -0.42290795 1.3021933 -0.26025817 0.842263
-0.2211772 -0.99956864 0.32372016 -0.45961148 -0.672178 -0.056268096 -0.9290586 1.0586874
-0.215112 -0.087736875 0.1385547 0.24141593 -0.21897969 -0.18015294 0.025670374 0.151952
0.53910303 0.07362246 -1.7211416 -1.4342155 0.04130036 -0.27734056 -0.44751784 0.056228075
0.24841495 -0.07972991 -0.9956977 0.2744344 1.7062423 0.97579217 -2.3608646 0.50182205
2.1648965 -0.10836043 1.807022 0.09081766 0.045558177 -2.6182082 -0.8153332 -0.038424317
-1.025401 -0.6309365 0.04798478 0.013484526 1.4561125 -0.5171528 -0.15257932 -1.811257
-0.9424179 -1.7161932 0.027538352 0.27705806 0.059640594 -0.24170898 -0.10590152 0.14015462
-0.022169147 0.07310187 -1.2965063 0.34350914 0.43459344 0.1967514 0.042312186 -1.0634098
0.252045 0.066239975 1.6061397 0.3130786 -0.046092976 -0.035685394 -2.9479408 -0.28335315
0.080282606 0.31190953 -0.6494354 -0.9103911 1.5760875 -0.10352479 -0.6208889 -0.21401994
0.4894876 1.083605 0.055848625 -1.0027374 -1.8241358 -0.04412398 0.17095622 0.18521906
1.9657282 -3.4287832 -0.23951945 -0.47614312 -2.2156909 -0.017666684 0.33059397 0.14753865
-0.2283736 0.51463145 -0.29420486 -0.05636122 0.3746831 -0.02490236 -0.7449608 -1.5245218
00000000: a382 9b3d 9818 8f3e 6454 643d 6205 d0be
00000010: 4c5b 47be 1e48 70bf a4ce a53e c559 653e
00000020: de9c a83d 2dfb e73d 4753 aabf 9486 53bf
00000030: 3882 09bf 6bd2 dabe 6b17 1d3c ae50 ebbf
00000040: 399e ab3f bb14 b5bb 667d 36bd 7226 5fbf
00000050: d270 03c0 ea92 ddbe 536c 933e 6f6c aebf
00000060: 7933 b8bf 31e9 e93f 98ba 79bf 2da4 ac3e
00000070: 632b ae3e bc93 013e 2b7b dcbf 5a58 0c3f
00000080: 8b25 bebe f8e5 0fbf 6802 3e3d ae87 1abf
00000090: 0032 613f fc86 d1be 2d32 3a3e 3e6b 20bc
000000a0: 3f55 cd3e eba4 30bf 0b77 a63f a5f9 e23d
000000b0: f8b4 083d 98b8 983e 7c79 0bbe 539f 6a3b
000000c0: 8141 31bf cb6b cfbb b836 25bf 5399 81be
000000d0: 5c4e c3ba b879 c6be 2240 f83e 9c1e cebf
000000e0: 363c 8cbf eb5a e53d fc0f 3d3e f14c c0bd
000000f0: fdbe b4bf 60da 7ebf 1534 623d 38fb 903d
00000100: 650a 913f 6359 acbe d01f 4dbd 5898 63bd
00000110: 67e2 ed3d ff7b 63be 6ea9 36bf 0a70 7b40
00000120: 9b83 a5be 6297 b03f 05ed 9f3e aea5 4bbd
00000130: 4fae a0bd c520 41bf d991 903d 0589 a73e
00000140: 4545 49bd 7138 6fbd 6dd2 aebf 37dd 8fbf
00000150: 5496 bdbe 02a7 9dbf 013e 273d 71b7 2b3f
00000160: d87a 29bf 745e 50be 6958 01c0 9c82 c3be
00000170: 38cb b93d 7a2f 37be d38a 0640 0474 a23d
00000180: 9a47 aebd 4b1b fd3e 6711 a3bf 74ca ed3e
00000190: 6499 9bbf caba 5e3d 0685 083e fa58 1fbe
000001a0: c006 4fbf 6d1a f8be cc69 f93f 95fa 4040
000001b0: 91c9 02bf cdc8 be3d 911c cbbe aa0c 5b3e
000001c0: 297b 1ac0 f3cf 8abf 9786 babe e0a5 ee3e
000001d0: 4c5e 85bf 3059 ecbd f41c 93be 4797 cb3f
000001e0: a64a 3cbe 2c67 a1be b21a 84be 08d3 52be
000001f0: 6d2a f6be 8eea 95be cd8d c0bf 55f0 9fbe
00000200: 7147 e13e c2a8 b2be f91b 163e df28 e4be
00000210: 24f9 3cbf 8449 883e 2879 debf 5254 9abf
00000220: 57ef 2d3b 1a3e 673c b21e ac3d a825 94bf
00000230: 6b9e e3be fda5 b83f f22b 20bd 2e1b 533e
00000240: 355c abbf 9912 783e 0a12 d53e 6d1d f13d
00000250: 6487 d8be 45ae a63f 8f40 85be 8c9e 573f
00000260: 477c 62be bbe3 7fbf a6be a53e 3252 ebbe
00000270: db13 2cbf 6079 66bd c9d6 6dbf 1283 873f
00000280: 5246 5cbe 64af b3bd 49e1 0d3e bd35 773e
00000290: 363c 60be 037a 38be ad4a d23c 4e99 1b3e
000002a0: a802 0a3f 5fc7 963d 5e4e dcbf 6094 b7bf
000002b0: 912a 293d 95ff 8dbe 0f21 e5be 694f 663d
000002c0: 7d60 7e3e 6f49 a3bd 0be6 7ebf aa82 8c3e
000002d0: 2666 da3f 84cd 793f 6818 17c0 6977 003f
000002e0: aa8d 0a40 13ec ddbd 7f4c e73f 9cfe b93d
000002f0: 369b 3a3d b990 27c0 adb9 50bf d162 1dbd
00000300: 5740 83bf 0e85 21bf b08b 443d 34ee 5c3c
00000310: e561 ba3f 2064 04bf c13d 1cbe 45d7 e7bf
00000320: 4d42 71bf 38ac dbbf 1c98 e13c 8eda 8d3e
00000330: b249 743d 8f82 77be e5e2 d8bd b184 0f3e
00000340: 129c b5bc 6fb6 953d ebf3 a5bf 6ee0 af3e
00000350: 0883 de3e 3379 493e 8b4f 2d3d d01d 88bf
00000360: 0b0c 813e d3a8 873d fc95 cd3f d74b a03e
00000370: fdcb 3cbd d92a 12bd 10ab 3cc0 aa13 91be
00000380: 356b a43d 9bb2 9f3e 6641 26bf 640f 69bf
00000390: 3cbd c93f ce04 d4bd 93f2 1ebf 0b28 5bbe
000003a0: 1e9e fa3e 92b3 8a3f 87c1 643d b359 80bf
000003b0: 487d e9bf 59bb 34bd 260f 2f3e 11aa 3d3e
000003c0: fb9c fb3f 2f71 5bc0 9644 75be 08c9 f3be
000003d0: e1cd 0dc0 b9b9 90bc 9d43 a93e 5f14 173e
000003e0: c5da 69be e3be 033f 05a2 96be 06db 66bd
000003f0: 77d6 bf3e 0900 ccbc c0b5 3ebf 8823 c3bf

action_layer.bias f4 [4]
1.9893464 0.14939556 -0.58603555 -0.81428164
00000000: e7a2 fe3f 26fb 183e 6d06 16bf c374 50bf

value_layer.weight f4 [1, 128]
-0.09571864 0.19468863 -0.12200211 0.07719985 0.26885775 0.57866895 0.06319734 0.059637997
-0.0057353415 0.04422866 0.20487307 0.599444 -0.13631739 0.34352055 -0.074518874 -0.043894097
0.16956379 -0.024679584 0.12505311 -0.6784583 0.28678176 -0.109087005 0.011353811 -0.73742
-0.15716049 -0.009448495 -0.027337307 -0.09411458 0.06886841 0.04112339 -0.52281356 0.072304495
-0.019532003 0.027778698 -0.10790918 -0.14347829 -0.021632649 0.0011182924 0.047097735 -0.072652854
-0.17610545 -0.020409461 -0.038126905 0.012627838 -0.047959913 0.0071385433 -0.5884829 -0.016106555
-0.7613344 -0.053275324 -0.07029839 0.07355919 0.28716117 0.61309355 -0.10229004 0.4472482
0.19245979 -0.3269928 0.30845708 -0.07196196 0.19189681 0.38502583 -0.14422302 -0.024787549
-0.19855592 0.025844064 0.034687247 0.02996224 0.460124 -0.18741944 -0.052353825 -0.04226756
0.60033125 0.080726564 0.01336434 -0.027503025 -0.076629475 -0.2773798 -0.03652209 0.3284909
-0.018125566 -0.015546036 -0.2655387 -0.7936006 0.05206552 0.8569178 -0.010470885 -0.26136252
-0.09093386 0.004846282 0.12669241 -0.7401821 -0.024041723 -0.17844854 -0.026380777 0.00082128355
0.019788498 0.18019919 0.27373388 -0.07722946 0.090619616 -0.010711099 -0.085406095 -0.10425721
0.01331517 0.7124353 -0.22969574 -0.16878334 -0.42524052 0.011894782 -0.1412133 0.022818264
0.29554966 0.16635874 -0.22932018 0.2529466 -0.44108894 0.0153535465 -0.024451522 0.7520536
0.08801611 -0.039272558 0.067528695 0.18386704 -0.10534127 0.16648394 0.4534075 -0.48324654
00000000: 2208 c4bd 755c 473e 3edc f9bd f41a 9e3d
00000010: b9a7 893e a623 143f 9b6d 813d f946 743d
00000020: 88ef bbbb 1d29 353d 3fca 513e 2975 193f
00000030: c996 0bbe ede1 af3e 5a9d 98bd 4cca 33bd
00000040: 21a2 2d3e d72c cabc ec0d 003e 71af 2dbf
00000050: 0fd5 923e 0269 dfbd 5605 3a3c 8fc7 3cbf
00000060: aeee 20be dccd 1abc 7df2 dfbc 25bf c0bd
00000070: e20a 8d3d 0071 283d 1cd7 05bf 6114 943d
00000080: 9401 a0bc 2790 e33c 7dff dcbd f9eb 12be
00000090: f436 b1bc ab93 923a 8ee9 403d 05cb 94bd
000000a0: fd54 34be be31 a7bc f52a 1cbd fee4 4e3c
000000b0: 9d71 44bd 71ea e93b d1a6 16bf e5f1 83bc
000000c0: d0e6 42bf 3a37 5abd 9af8 8fbd 33a6 963d
000000d0: ca06 933e b3f3 1c3f 717d d1bd b7fd e43e
000000e0: 2e14 453e 9a6b a7be 16ee 9d3e cb60 93bd
000000f0: 9980 443e 1b22 c53e 33af 13be 420f cbbc
00000100: 3e52 4bbe eeb6 d33c 3714 0e3d 5f73 f53c
00000110: 5f95 eb3e e2ea 3fbe f770 56bd c020 2dbd
00000120: 4faf 193f f853 a53d 1bf6 5a3c 064e e1bc
00000130: eaef 9cbd ba04 8ebe 3098 15bd f62f a83e
00000140: 117c 94bc cdb4 7ebc b0f4 87be 6929 4bbf
00000150: a842 553d f75e 5b3f 138e 2bbc 4fd1 85be
00000160: 883b babd 8fcd 9e3b a8bb 013e 937c 3dbf
00000170: 26f3 c4bc 37bb 36be 801c d8bc 684b 573a
00000180: 7d1b a23c 2386 383e d926 8c3e 7b2a 9ebd
00000190: c796 b93d 9b7d 2fbc 64e9 aebd ce84 d5bd
000001a0: df27 5a3c 2962 363f 5c35 6bbe 8ad5 2cbe
000001b0: 20b9 d9be 55e2 423c 389a 10be 5eed ba3c
000001c0: 4952 973e f259 2a3e e9d2 6abe 3782 813e
000001d0: 69d6 e1be 718d 7b3c 8f4e c8bc 9686 403f
000001e0: ca41 b43d 43dc 20bd 7c4c 8a3d a447 3c3e
000001f0: 2abd d7bd c47a 2a3e 0725 e83e 176c f7be
